# YOLOv8 C2fER Configuration with 20 classes
nc: 20
depth_multiple: 0.33
width_multiple: 0.5

backbone:
  - [-1, 1, 'Conv', [32, 3, 2]]  # 0
  - [-1, 1, 'Conv', [64, 3, 2]]  # 1
  - [-1, 1, 'C2f', [64, 1, True]]  # 2
  - [-1, 1, 'Conv', [128, 3, 2]]  # 3
  - [-1, 1, 'C2f', [128, 1, True]]  # 4
  - [-1, 1, 'Conv', [256, 3, 2]]  # 5
  - [-1, 1, 'C2f', [256, 1, True]]  # 6
  - [-1, 1, 'Conv', [512, 3, 2]]  # 7
  - [-1, 1, 'C2f', [512, 1, True]]  # 8
  - [-1, 1, 'SPPF', [512, 5]]  # 9

head:
  - [-1, 1, 'nn.Upsample', [None, 2, 'nearest']]  # 10
  - [[-1, 6], 1, 'Concat', [1]]  # 11
  - [-1, 1, 'C2f', [128, 1, False]]  # 12
  - [-1, 1, 'nn.Upsample', [None, 2, 'nearest']]  # 13
  - [[-1, 4], 1, 'Concat', [1]]  # 14
  - [-1, 1, 'C2f', [64, 1, False]]  # 15
  - [-1, 1, 'Conv', [64, 3, 2]]  # 16
  - [[-1, 12], 1, 'Concat', [1]]  # 17
  - [-1, 1, 'C2f', [128, 1, False]]  # 18
  - [-1, 1, 'Conv', [128, 3, 2]]  # 19
  - [[-1, 9], 1, 'Concat', [1]]  # 20
  - [-1, 1, 'C2f', [256, 1, False]]  # 21
  - [[15, 18, 21], 1, 'Detect', [20]]  # 22
